lightning_logs/version_3/checkpoints/epoch=99-step=108900.ckpt (torch, 301523 bytes, 6 tensors)

model.W.weight f4 [41, 602]
0	0x4128635f	10.5242605
1	0x42338527	44.88003
2	0x41704f27	15.019324
3	0xc1e3a6ea	-28.456501
4	0xc085f9dc	-4.1867504
5	0x41fa2412	31.267612
6	0xc0ffe0e8	-7.9962044
7	0x41535d69	13.210305
8	0x4126acd0	10.417191
9	0x41b63f12	22.780796
10	0xc18f9c39	-17.95128
11	0x41a1d245	20.22767
12	0xc10494c0	-8.286316
13	0xc1c196eb	-24.19869
14	0xc221326c	-40.29924
15	0xc1794a65	-15.580663
16	0xc26a2335	-58.53438
17	0xc1f02715	-30.019083
18	0x3fdf2e3a	1.7435982
19	0x408c445d	4.383345
20	0xc1a26b77	-20.302473
21	0x4183cc12	16.474644
22	0x3f71a0b9	0.9438587
23	0x4178da14	15.553242
24	0xc1862c6f	-16.771696
25	0xc1aef487	-21.869398
26	0x41cd7588	25.682388
27	0x4184fca8	16.623367
28	0x41c9f103	25.242682
29	0x41f42250	30.516754
30	0xc0fd02b3	-7.9065795
31	0xc1091e97	-8.569968
32	0x424ad969	50.712315
33	0x4043be7b	3.058501
34	0x3fa438bf	1.2829818
35	0xc051ffc8	-3.2812366
36	0x411352be	9.207701
37	0xc214725c	-37.11168
38	0x419a3f0d	19.280787
39	0xbf387163	-0.72048014
40	0x41c28e59	24.319506
41	0xc054cf9e	-3.325172
42	0xc2433461	-48.80115
43	0x4179011f	15.562774
44	0x403356f4	2.8021822
45	0xc1d356b7	-26.417341
46	0x41daecb8	27.365585
47	0x40d69561	6.7057347
48	0xc0b77367	-5.732837
49	0xc100e28b	-8.055308
50	0xc1a6930e	-20.821804
51	0xc1322353	-11.133624
52	0x419e5b64	19.794624
53	0xc1e2929a	-28.321583
54	0xc03e94fe	-2.9778438
55	0xc1c33784	-24.402107
56	0x3fd0197d	1.6257778
57	0x41e6be14	28.842812
58	0xc013f1e1	-2.311638
59	0xc1f4805a	-30.562672
60	0x413a0cbd	11.62811
61	0xc17c5675	-15.771108
62	0xc11e1845	-9.880925
63	0xc13727ae	-11.447187
64	0x41874afd	16.911615
65	0xc200792e	-32.11834
66	0xc1be9da8	-23.82698
67	0x3f66ae3b	0.90109605
68	0xc04335e8	-3.0501652
69	0xc1971d98	-18.88945
70	0xc1360579	-11.376336
71	0xc1989f15	-19.077677
72	0x4069eb8a	3.6550012
73	0xc1d5b58c	-26.713646
74	0x41b2c991	22.348421
75	0x4115a579	9.352899
76	0x40b0e30a	5.5277147
77	0x420c78cc	35.117966
78	0x41dd5d12	27.670444
79	0xc12ca5ce	-10.79048
80	0x42618443	56.37916
81	0x420f5603	35.833996
82	0xc235be93	-45.436108
83	0x41e85f99	29.046679
84	0xc23f0e12	-47.76374
85	0xc222c4a9	-40.69205
86	0xc13c5dc3	-11.772891
87	0x3f487438	0.78302336
88	0xc172016a	-15.125345
89	0xc038184c	-2.876483
90	0xc17bb8c7	-15.732612
91	0xc160e7f4	-14.056629
92	0xc165f318	-14.371849
93	0xc2605c48	-56.09012
94	0x40358315	2.8361256
95	0x41bd2e10	23.647491
96	0x424905d4	50.25569
97	0x416ac760	14.673676
98	0xc02153e1	-2.5207446
99	0x41415f45	12.085759
100	0x41aa71b1	21.305513
101	0xc1893e9c	-17.155571
102	0x42a7128d	83.53623
103	0xc1585c42	-13.522524
104	0x4180fd41	16.12366
105	0x423abde1	46.68543
106	0xc19f644b	-19.923971
107	0xc2208489	-40.12943
108	0xc20c1e55	-35.02962
109	0x41dfe075	27.984598
110	0x41ab1d07	21.389174
111	0xc194f7ee	-18.62106
112	0x42017b71	32.37055
113	0x418cdec4	17.608772
114	0xc1b17da1	-22.186342
115	0x407ad104	3.9190073
116	0xc1f865d3	-31.049719
117	0x41cef457	25.869307
118	0x41baa6ff	23.331541
119	0x41896046	17.172009
120	0xc1e2ad13	-28.334509
121	0x41745b80	15.272339
122	0x40235589	2.5520957
123	0xc1545d75	-13.272817
124	0xc1b1e77a	-22.238026
125	0x40a168cc	5.0440426
126	0x41cb876b	25.441122
127	0x416e5360	14.895355
128	0x4200978b	32.14799
129	0x40ec8fee	7.3925695
130	0x41a41f06	20.515148
131	0x41f86a63	31.051947
132	0xc22f4e6b	-43.82658
133	0x40d2c887	6.5869784
134	0xc234829d	-45.127552
135	0x41943eec	18.530724
136	0x411309b1	9.189866
137	0xc188ec02	-17.115238
138	0xc1993d32	-19.15488
139	0x41bbb0ea	23.461384
140	0x42102f7f	36.046383
141	0x40aba792	5.3642054
142	0xc007501a	-2.114264
143	0x4211389b	36.30528
144	0x40f0e07a	7.527402
145	0x41e5c3d9	28.720629
146	0x417fc79f	15.986236
147	0xc147b7ed	-12.482404
148	0x4046b1bb	3.1045978
149	0x41a1f168	20.242874
150	0x40df208e	6.972724
151	0x413ce455	11.805745
152	0x41966a83	18.802008
153	0xc0b5df98	-5.683544
154	0x422aac0f	42.668026
155	0xc0de9445	-6.9555993
156	0x41093574	8.57555
157	0xc18d5b81	-17.66968
158	0xbf9cd731	-1.2253171
159	0xc202ca0f	-32.697323
160	0x4004def5	2.0761082
161	0x41901511	18.010286
162	0xc1932bb9	-18.396349
163	0xc2090388	-34.25345
164	0x41bb3377	23.40013
165	0xc239ac5a	-46.418312
166	0x41aa81bb	21.313345
167	0xc1bed272	-23.852757
168	0xc00ac468	-2.1682377
169	0xc160ebc6	-14.057562
170	0xc029b14c	-2.6514463
171	0x414a3692	12.638323
172	0xc222ecbb	-40.731182
173	0xc1870ac9	-16.880266
174	0xc2507b32	-52.120308
175	0x410c6aba	8.776056
176	0xc1c3e2bf	-24.485716
177	0x41a4cc98	20.5999
178	0xc100abb3	-8.041919
179	0xc130373c	-11.013485
180	0xc206afee	-33.671806
181	0x414dc416	12.860373
182	0x42088959	34.13413
183	0x41b5a7fd	22.707026
184	0xc0ab45b6	-5.3522596
185	0x4228e530	42.223816
186	0x40ff46b4	7.9773808
187	0x42018f1a	32.389748
188	0x41438e4b	12.2222395
189	0x41cb14de	25.38519
190	0x414fad2a	12.979776
191	0x3de0e8ef	0.109819286
192	0xc0dfd5bc	-6.9948406
193	0xc1e03721	-28.026918
194	0xc2170eee	-37.76458
195	0xc1c4ee39	-24.61632
196	0x4272f7d6	60.742027
197	0xc1706b72	-15.026232
198	0xc1fd34ca	-31.650776
199	0x41a07e2f	20.061613
200	0x413ab54b	11.669261
201	0x4183abf2	16.458958
202	0xc1a547c8	-20.66005
203	0xc22b9a4d	-42.900684
204	0xc2241771	-41.022892
205	0x4290aa3d	72.3325
206	0x3f528b05	0.82243377
207	0x412a5c66	10.647558
208	0x418ec0cd	17.844141
209	0x3ff7ef65	1.9369932
210	0xc1983948	-19.02797
211	0xc1124a33	-9.143115
212	0x4221b9dd	40.431507
213	0x40e1edb0	7.0602646
214	0xc1be8dcd	-23.819239
215	0x41689ed2	14.5387745
216	0x41b8a4a4	23.08039
217	0xc122813c	-10.156551
218	0x422479bc	41.11888
219	0x412122b5	10.070973
220	0x3fe178a5	1.7614943
221	0xc1989654	-19.073402
222	0xc07723ec	-3.8615675
223	0xc1f36ed4	-30.429115
224	0xc1cd9786	-25.698986
225	0x40eff41e	7.4985495
226	0x40133ee6	2.300714
227	0xc2485c85	-50.09035
228	0x3fe21210	1.7661762
229	0xc124ef70	-10.308456
230	0x41a42a6d	20.520716
231	0xc14e9e17	-12.913596
232	0x41968895	18.81669
233	0xc18768cb	-16.926168
234	0x40f4731d	7.639052
235	0xc1f05000	-30.039062
236	0x419e3a45	19.778452
237	0xc2728206	-60.626976
238	0x41ce64c2	25.799198
239	0x41c4dbee	24.607388
240	0xc21eece3	-39.731335
241	0xc02a55cb	-2.6614864
242	0x41ff1390	31.884552
243	0x3fe526c8	1.790246
244	0x4221369f	40.30334
245	0x40d5be38	6.67947
246	0xc274f5d4	-61.240067
247	0xc1bcdc7d	-23.60766
248	0xc246c5c1	-49.69312
249	0xc17861b1	-15.52385
250	0xc06eff74	-3.7343416
251	0xc20ee1d8	-35.72055
252	0x41f109f3	30.129858
253	0x40c58cf9	6.1734586
254	0x40ec64a9	7.3872876
255	0xc138a34f	-11.53987

model.W.bias f4 [41]
0	0x41e60c07	28.755873
1	0xc180a0e6	-16.078564
2	0xc0e01e69	-7.003712
3	0xc2ea9484	-117.29007
4	0xc0757523	-3.8352745
5	0xc158f7af	-13.56047
6	0xc0bba319	-5.8636594
7	0xbf1e8b46	-0.61931264
8	0x408e2ca7	4.4429507
9	0xc1d846d3	-27.034582
10	0x4026ca2a	2.606089
11	0xc2b697c3	-91.29641
12	0xc2806cc8	-64.21246
13	0x41607783	14.029178
14	0xc11cbebe	-9.796568
15	0x41f9ae5c	31.210136
16	0x4078eea9	3.8895667
17	0xc18c5145	-17.539682
18	0x41a083fa	20.064442
19	0x418f6536	17.92442
20	0xc2bdcd07	-94.900444
21	0xc0b570c3	-5.670015
22	0x41fd365d	31.651545
23	0x4200a8b8	32.164764
24	0xc27cb3e5	-63.17568
25	0x401d6a0b	2.4595973
26	0x409e86b3	4.953943
27	0x41859546	16.697887
28	0xc23756bc	-45.8347
29	0x40dfed2a	6.9977007
30	0x414d87b7	12.8456335
31	0xc1196236	-9.586477
32	0x413b3ba9	11.702065
33	0x3f3d59a9	0.73964936
34	0xc1dae708	-27.362808
35	0xc100ca40	-8.049377
36	0x4006a438	2.103773
37	0x4124ef9a	10.308496
38	0x410914bf	8.567565
39	0x4192dbe9	18.357378
40	0x40406c07	3.0065935

exp_avg f4 [41, 602]
0	0xb908b085	-0.0001303573
1	0xb7317315	-1.0576817e-05
2	0xb94cff86	-0.00019550146
3	0xb80557af	-3.1791333e-05
4	0xb91c95b9	-0.00014933095
5	0x38d97992	0.000103700106
6	0x399a29c7	0.00029404295
7	0x38d0e118	9.96014e-05
8	0x373331da	1.0680838e-05
9	0xb93246f7	-0.0001700184
10	0xb9289ef7	-0.00016080948
11	0xb7f883d1	-2.9625286e-05
12	0xb93d066e	-0.0001802684
13	0xb8337748	-4.2788015e-05
14	0x38a6ffb9	7.963129e-05
15	0xb8d83bca	-0.00010310819
16	0x38a59166	7.894896e-05
17	0xb8907d81	-6.889832e-05
18	0x3915d09a	0.00014287457
19	0x38a4db4c	7.8609766e-05
20	0x37f13d3f	2.8757959e-05
21	0xb77fc030	-1.5243932e-05
22	0xb7672f7b	-1.3779728e-05
23	0xb8b1bb7c	-8.4749394e-05
24	0xb90fe6b8	-0.00013723492
25	0x396865c4	0.00022163155
26	0x394a7172	0.00019306483
27	0xb90ae459	-0.00013245772
28	0xb8cee960	-9.866315e-05
29	0xb9332923	-0.00017086095
30	0x39119d5f	0.00013886903
31	0x37384f57	1.0985727e-05
32	0xb94f28e1	-0.00019756287
33	0xb9cb7a13	-0.0003881013
34	0x3939b80d	0.00017711539
35	0xb8124559	-3.4873698e-05
36	0xb952f9fb	-0.00020120286
37	0x396cca7c	0.00022582145
38	0xb895e953	-7.148334e-05
39	0x3977995a	0.00023612884
40	0x37dc1dae	2.6239864e-05
41	0xb85b1870	-5.2236428e-05
42	0xb9638a5c	-0.0002169995
43	0xb874fb29	-5.8408044e-05
44	0x3961d2b2	0.00021536162
45	0x3922fe7f	0.00015544331
46	0xb73ce260	-1.125838e-05
47	0xb944a41b	-0.0001875315
48	0x390f22bd	0.00013650484
49	0xb727e342	-1.0006888e-05
50	0x39841d1f	0.000251987
51	0xb89fdbfc	-7.622686e-05
52	0x39786cf5	0.00023691713
53	0xb96cfaf3	-0.000226002
54	0xb8b85f6e	-8.791579e-05
55	0x37b29d91	2.1292626e-05
56	0x3890025d	6.866895e-05
57	0xb73d9bc2	-1.1301543e-05
58	0x372d1085	1.031545e-05
59	0xb6bda510	-5.6518547e-06
60	0xb9335c79	-0.00017105219
61	0xb8cc44be	-9.740282e-05
62	0x3971f4fe	0.00023074818
63	0x38ecbfb9	0.00011289068
64	0x388649f2	6.403391e-05
65	0x389821b9	7.254206e-05
66	0x378cf3ac	1.680277e-05
67	0x38a39ab2	7.80126e-05
68	0x36c4f18a	5.869374e-06
69	0xb914580d	-0.00014147181
70	0x393a2cb8	0.00017755001
71	0xb8d29fea	-0.00010043367
72	0xb8b0ae9d	-8.424858e-05
73	0xb995dd6d	-0.0002858447
74	0xb904105e	-0.00012594598
75	0xb997c428	-0.00028947112
76	0x38e954e2	0.000111261164
77	0xb93307d7	-0.00017073691
78	0xb90f5a0f	-0.00013671092
79	0x390a9862	0.00013217473
80	0xb768fb08	-1.3886725e-05
81	0x3910e628	0.0001381865
82	0xb991c764	-0.00027805113
83	0xb8d13e6e	-9.977525e-05
84	0x38a5a866	7.89918e-05
85	0xb70f7066	-8.549634e-06
86	0xb974ef38	-0.00023358769
87	0xb920ed64	-0.00015347224
88	0x36a435ab	4.8938286e-06
89	0xb7fe41d7	-3.0309819e-05
90	0xb99f63af	-0.00030401113
91	0x394332c0	0.00018615555
92	0xb94b23a2	-0.00019372863
93	0xb8081b6f	-3.2450476e-05
94	0xb83b9e4f	-4.473171e-05
95	0x38dc1167	0.00010493659
96	0x38c627ab	9.4487645e-05
97	0x392b3971	0.0001632923
98	0x38e44d90	0.00010886334
99	0x39465247	0.00018913402
100	0xb90bfdbd	-0.00013350598
101	0xb87bd94f	-6.0045448e-05
102	0xb83ff668	-4.5767432e-05
103	0x368182af	3.859713e-06
104	0x394ee3f0	0.00019730604
105	0xb92e2d9c	-0.00016610924
106	0xb7932093	-1.7538934e-05
107	0x38c955ee	9.6004325e-05
108	0x381f07cb	3.7915812e-05
109	0x38d43099	0.00010118
110	0xb2fa0ead	-2.9110504e-08
111	0x37b38e0e	2.1404612e-05
112	0xb982e4fe	-0.00024966145
113	0x38691764	5.5573313e-05
114	0xb7f6c7f7	-2.9418601e-05
115	0xb696d52c	-4.495165e-06
116	0x3947cabc	0.00019053643
117	0xb940a818	-0.00018373167
118	0x380f824d	3.421521e-05
119	0x3924777f	0.00015684775
120	0xb8e58ba5	-0.00010945582
121	0x3805838b	3.183218e-05
122	0xb8842221	-6.3006075e-05
123	0xb814d27c	-3.548198e-05
124	0x37238499	9.74643e-06
125	0xb80ab0ff	-3.3066604e-05
126	0xb90f5dbd	-0.00013672463
127	0x37a6b4ef	1.9872996e-05
128	0x3822c6c3	3.880892e-05
129	0x381c9491	3.733166e-05
130	0xb836370d	-4.344345e-05
131	0x35946a47	1.105779e-06
132	0x38c1c8d7	9.2403665e-05
133	0x34860bba	2.4967977e-07
134	0xb928872c	-0.00016072084
135	0x39018fdb	0.00012355989
136	0x355eb6fe	8.2967733e-07
137	0xb8847bc9	-6.317307e-05
138	0xb63749f1	-2.7312165e-06
139	0xb91b6821	-0.00014820743
140	0x37ede0f5	2.8357355e-05
141	0xb8472418	-4.7478912e-05
142	0x38d74a86	0.0001026588
143	0xb903287c	-0.00012508215
144	0x38145fa0	3.5375007e-05
145	0x38217f3c	3.8503887e-05
146	0x38a7c26c	7.9993944e-05
147	0x3898576a	7.264207e-05
148	0x39983b32	0.00029035803
149	0xb87900ad	-5.9366856e-05
150	0x38c6ce69	9.4798226e-05
151	0x370f873c	8.554951e-06
152	0xb98adcb1	-0.0002648584
153	0x382a853d	4.0655246e-05
154	0xb9297d23	-0.00016163713
155	0xb292e310	-1.7099893e-08
156	0x383ae98f	4.4563374e-05
157	0xb983e3de	-0.0002515604
158	0xb873486b	-5.800316e-05
159	0xb605d68b	-1.9943425e-06
160	0xb8d2cd25	-0.000100517915
161	0xb757461e	-1.2831324e-05
162	0xb8a45ea2	-7.837756e-05
163	0xb925d688	-0.00015815545
164	0xb9297659	-0.00016161184
165	0x39ad6531	0.00033072525
166	0xb9465bb7	-0.00018916918
167	0xb9803df7	-0.0002446023
168	0x38d12b93	9.974013e-05
169	0xb8e403ff	-0.000108726315
170	0x387ac2d1	5.978608e-05
171	0xb95a7cea	-0.00020836634
172	0xb808c8cd	-3.2611937e-05
173	0x398f1c02	0.00027295953
174	0x38b7de5c	8.767538e-05
175	0xb8633cdc	-5.4177697e-05
176	0x386c67d3	5.636348e-05
177	0x394e8597	0.00019695457
178	0x3745b677	1.1784598e-05
179	0x39259811	0.00015792275
180	0x3946cab0	0.00018958258
181	0x3721d4e1	9.6459125e-06
182	0x38af926d	8.371924e-05
183	0x3829b3e1	4.0460265e-05
184	0xb99764b3	-0.0002887599
185	0x391c2b6e	0.00014893498
186	0xb98983ac	-0.0002622878
187	0x3805c2a7	3.1890955e-05
188	0xb8e9cb1e	-0.00011148139
189	0xb93a89c6	-0.00017789667
190	0x393154d6	0.00016911639
191	0x39ae40fc	0.00033236283
192	0x38276ba5	3.9916154e-05
193	0x38c5b9d3	9.4283045e-05
194	0x392210b3	0.00015455745
195	0xb91f0ec0	-0.00015168916
196	0xb98e0d21	-0.00027094132
197	0xb9190393	-0.00014592549
198	0xb68a8e7f	-4.129309e-06
199	0x393106f3	0.00016882624
200	0xb7e4212c	-2.7195165e-05
201	0xb8a44761	-7.833425e-05
202	0xb884cd29	-6.3324645e-05
203	0x3947eb4f	0.00019065778
204	0x38b02295	8.3987754e-05
205	0x3889a9b1	6.5642766e-05
206	0xb7b12514	-2.111731e-05
207	0xb78457d6	-1.5776528e-05
208	0x392ed4c9	0.00016673202
209	0x380f0219	3.409581e-05
210	0x38a4ffb6	7.867759e-05
211	0x397dc54d	0.0002420146
212	0x378a3570	1.6475766e-05
213	0xb91eb2d4	-0.00015134673
214	0x385a166b	5.199613e-05
215	0xb8ebb5f2	-0.00011239563
216	0xb877b0a4	-5.90539e-05
217	0x36357af6	2.7042674e-06
218	0x3926592a	0.0001586421
219	0xb8981d74	-7.253411e-05
220	0x38aa844b	8.130873e-05
221	0x38b1760e	8.462007e-05
222	0x385f1dfb	5.3195265e-05
223	0x38dbb30a	0.000104760824
224	0xb7c24482	-2.3158504e-05
225	0xb8cc4b98	-9.7415585e-05
226	0x38224feb	3.869824e-05
227	0x38cbdee3	9.72131e-05
228	0x380c7a75	3.3492648e-05
229	0xb94507c7	-0.00018790281
230	0xb931df35	-0.00016963186
231	0xb7b77a12	-2.1872143e-05
232	0xb8bd7aaf	-9.035074e-05
233	0xb819b432	-3.6645863e-05
234	0x38433ed9	4.6550154e-05
235	0x38dc60ca	0.00010508446
236	0xb80b4471	-3.3203924e-05
237	0x37becdd0	2.2745604e-05
238	0xb7e5bc7c	-2.7386697e-05
239	0x398c3b37	0.00026747
240	0xb954cae0	-0.00020293472
241	0x355c7ebf	8.2140826e-07
242	0xb8fcfe0f	-0.000120636185
243	0x390adad5	0.00013242227
244	0x370b3f4c	8.299783e-06
245	0xb884160e	-6.2983585e-05
246	0x3891aabc	6.9459405e-05
247	0xb7876520	-1.6140344e-05
248	0xb902e545	-0.00012483176
249	0xb8ed1c83	-0.000113063514
250	0x395ecc2d	0.00021247631
251	0xb915b3ef	-0.00014276778
252	0xb88aecd3	-6.624465e-05
253	0xb98a1126	-0.00026334188
254	0x39aa9124	0.00032533065
255	0x3955a41f	0.00020374403

exp_avg_sq f4 [41, 602]
0	0x3564422f	8.503293e-07
1	0x355771aa	8.0259144e-07
2	0x34bf66c6	3.56513e-07
3	0x3432f32f	1.6666012e-07
4	0x34f9c2ac	4.6521507e-07
5	0x3558d4e1	8.077605e-07
6	0x3616b021	2.2454262e-06
7	0x343239b6	1.6598537e-07
8	0x3464231c	2.1246927e-07
9	0x35a9a16a	1.2638459e-06
10	0x349abb75	2.8821128e-07
11	0x349870d7	2.8394308e-07
12	0x34fad424	4.672048e-07
13	0x3422ec17	1.5173315e-07
14	0x34807ca2	2.393254e-07
15	0x35690210	8.6802265e-07
16	0x345b8ca4	2.0447129e-07
17	0x34742352	2.273712e-07
18	0x34bad85b	3.480262e-07
19	0x342d52cb	1.6142e-07
20	0x34286314	1.5682264e-07
21	0x340cdfa0	1.311987e-07
22	0x3422cbb2	1.516153e-07
23	0x34dcf960	4.1159637e-07
24	0x34686ee1	2.1647021e-07
25	0x359b662d	1.1578137e-06
26	0x356809d9	8.6441065e-07
27	0x34d35f83	3.9371307e-07
28	0x352a36d8	6.3409743e-07
29	0x350ab6b6	5.1674886e-07
30	0x3510a530	5.388456e-07
31	0x345a92ae	2.0356194e-07
32	0x358b5568	1.0381164e-06
33	0x360e6332	2.1217388e-06
34	0x353e37cc	7.086171e-07
35	0x3434eb3b	1.6849383e-07
36	0x35289a38	6.2809295e-07
37	0x3551cb0c	7.815404e-07
38	0x34829679	2.432387e-07
39	0x35d674af	1.5978202e-06
40	0x345c6ebf	2.0529386e-07
41	0x3435b459	1.6922549e-07
42	0x349565c4	2.7827457e-07
43	0x34ae8b90	3.251157e-07
44	0x351b68ea	5.789467e-07
45	0x3577ccc0	9.231262e-07
46	0x342b84c4	1.5973916e-07
47	0x3500b659	4.7949067e-07
48	0x34cf66a7	3.8631444e-07
49	0x34686c67	2.164612e-07
50	0x352d7ec8	6.4632013e-07
51	0x34e2b0c3	4.2224391e-07
52	0x35211aaa	6.0015975e-07
53	0x35995a9f	1.1425763e-06
54	0x349ef9d5	2.961157e-07
55	0x341aebef	1.44282e-07
56	0x351b700b	5.7905044e-07
57	0x3459394f	2.0230549e-07
58	0x34a3908f	3.0466296e-07
59	0x34ae0e48	3.2420417e-07
60	0x35b58d52	1.352668e-06
61	0x352799b4	6.2436015e-07
62	0x357bee24	9.3851327e-07
63	0x34c4ec7f	3.6679918e-07
64	0x35061a9e	4.9957623e-07
65	0x34ec03f7	4.396131e-07
66	0x3446c5b9	1.8512118e-07
67	0x343d5ab3	1.7634993e-07
68	0x340ea574	1.3284972e-07
69	0x35916e66	1.0835472e-06
70	0x34f55c72	4.570207e-07
71	0x3536c2a0	6.80835e-07
72	0x3518e233	5.6953576e-07
73	0x35c8bfed	1.4957019e-06
74	0x34c90c65	3.7448186e-07
75	0x35b6a4d5	1.3608029e-06
76	0x3499e178	2.866252e-07
77	0x352a7fa9	6.3515705e-07
78	0x35892393	1.0217649e-06
79	0x34e06153	4.1794064e-07
80	0x3442577e	1.8099487e-07
81	0x3513a65a	5.500384e-07
82	0x35b60656	1.3561901e-06
83	0x341a4774	1.4368362e-07
84	0x341f21a7	1.4820272e-07
85	0x341c94a6	1.458271e-07
86	0x35bd01e5	1.4082149e-06
87	0x34fc5a74	4.700447e-07
88	0x33c930ed	9.3686914e-08
89	0x344c9f2d	1.9056888e-07
90	0x35ec5b04	1.7609859e-06
91	0x35dd27d6	1.6477377e-06
92	0x35497d42	7.506061e-07
93	0x34867274	2.504272e-07
94	0x3427cffd	1.5628753e-07
95	0x350b4621	5.1883586e-07
96	0x34e052b2	4.178342e-07
97	0x352f6f0d	6.535418e-07
98	0x348aa5e6	2.582521e-07
99	0x35311565	6.596877e-07
100	0x3539f93c	6.9280554e-07
101	0x34f2a7be	4.519806e-07
102	0x34301f72	1.6402717e-07
103	0x3457aec3	2.0087013e-07
104	0x359d66de	1.172735e-06
105	0x34a2d5fb	3.0330543e-07
106	0x34d8979c	4.0343446e-07
107	0x34eb0364	4.3774628e-07
108	0x34141b0a	1.3793411e-07
109	0x34d00303	3.874521e-07
110	0x348aeff5	2.5879095e-07
111	0x3424aa2b	1.5335597e-07
112	0x355de814	8.2666634e-07
113	0x348b10cf	2.5902997e-07
114	0x34389016	1.7188754e-07
115	0x341a0e19	1.4347496e-07
116	0x3525d4c7	6.177692e-07
117	0x359cd97d	1.1686203e-06
118	0x348b5f89	2.5960279e-07
119	0x35161c18	5.5920236e-07
120	0x34701485	2.2359207e-07
121	0x34195a2b	1.4282038e-07
122	0x34ad63a6	3.2296265e-07
123	0x33fd23ab	1.17877185e-07
124	0x33dc0c41	1.0246777e-07
125	0x34f96f2c	4.6460752e-07
126	0x350687f4	5.011673e-07
127	0x34e5d143	4.2806832e-07
128	0x34272b4c	1.5568838e-07
129	0x348739cb	2.518776e-07
130	0x346f75b3	2.2301428e-07
131	0x34610fdf	2.0960532e-07
132	0x34deb902	4.1485333e-07
133	0x33d354bf	9.8408684e-08
134	0x340b14d7	1.2952965e-07
135	0x34d2469c	3.9166923e-07
136	0x3410bc8b	1.3479637e-07
137	0x34ebefca	4.394663e-07
138	0x34b20901	3.3161635e-07
139	0x3554261f	7.903163e-07
140	0x3464cdde	2.1309049e-07
141	0x342a283b	1.584712e-07
142	0x34800b01	2.3849864e-07
143	0x34c4a1ce	3.6625573e-07
144	0x34ffe84e	4.7666475e-07
145	0x348be93f	2.6060476e-07
146	0x3483ade9	2.4527188e-07
147	0x346e8c50	2.2216523e-07
148	0x36298a4e	2.5263466e-06
149	0x34ad1204	3.223687e-07
150	0x34cd7e93	3.827632e-07
151	0x34669595	2.1474837e-07
152	0x35f022f1	1.7891563e-06
153	0x349a40e1	2.873194e-07
154	0x3528d5b9	6.2895884e-07
155	0x342a1635	1.5840563e-07
156	0x342df273	1.6200083e-07
157	0x35c8b7f7	1.4954702e-06
158	0x34289b1b	1.5702646e-07
159	0x343375bb	1.6713504e-07
160	0x34cf74e2	3.8641798e-07
161	0x34322495	1.659085e-07
162	0x350789d6	5.0491997e-07
163	0x353470ed	6.7219554e-07
164	0x35802e72	9.55026e-07
165	0x35e0f839	1.6761543e-06
166	0x34e31f04	4.2304612e-07
167	0x3593dfe1	1.1017511e-06
168	0x34d976e8	4.0505915e-07
169	0x34bad7cc	3.4802213e-07
170	0x34247b28	1.5318494e-07
171	0x357ab556	9.3396136e-07
172	0x341e6b7b	1.4753998e-07
173	0x35b0290b	1.3124967e-06
174	0x345d24d5	2.0595628e-07
175	0x34fdf67c	4.7304263e-07
176	0x34d74468	4.0096643e-07
177	0x3533b51a	6.6946234e-07
178	0x346dd802	2.2150928e-07
179	0x34aee9a0	3.258001e-07
180	0x3531e7da	6.6275027e-07
181	0x341a4c4b	1.4370123e-07
182	0x348ecab8	2.6597058e-07
183	0x340fae51	1.3381329e-07
184	0x35cadab0	1.5113819e-06
185	0x357908ac	9.277235e-07
186	0x361fac1e	2.3793032e-06
187	0x342924e1	1.5752768e-07
188	0x34851fdc	2.479636e-07
189	0x3519369b	5.7076403e-07
190	0x351eab7b	5.9109124e-07
191	0x362f5a70	2.6129674e-06
192	0x34ec3f1e	4.400435e-07
193	0x348c4a7a	2.613122e-07
194	0x3541fb85	7.226411e-07
195	0x344fc3fe	1.9349679e-07
196	0x35285f52	6.2723586e-07
197	0x349316fa	2.73976e-07
198	0x34616403	2.0991142e-07
199	0x35d2c814	1.570445e-06
200	0x34ce5e11	3.8438932e-07
201	0x3465e66c	2.1411114e-07
202	0x33fd9fcf	1.18102996e-07
203	0x357969cb	9.291368e-07
204	0x343625ad	1.6963777e-07
205	0x33f00d05	1.1178239e-07
206	0x343d9a28	1.7658078e-07
207	0x3413274d	1.370474e-07
208	0x34ee6cb8	4.4410058e-07
209	0x343e9d8c	1.7752444e-07
210	0x34cc85aa	3.8095214e-07
211	0x350dddbe	5.284927e-07
212	0x34b99284	3.456554e-07
213	0x3564f967	8.5299547e-07
214	0x347dfe35	2.3654941e-07
215	0x34f70506	4.601099e-07
216	0x34bd1dca	3.5225668e-07
217	0x3429cafc	1.5813197e-07
218	0x34a8a4a7	3.141224e-07
219	0x350bf95e	5.214441e-07
220	0x3508a560	5.09046e-07
221	0x34dd8261	4.125932e-07
222	0x34ff90f5	4.7602921e-07
223	0x34bdb1e3	3.5333423e-07
224	0x345d0d48	2.058706e-07
225	0x3505b6a3	4.981213e-07
226	0x3500c197	4.7965426e-07
227	0x34968d5b	2.8042527e-07
228	0x347b4bed	2.3403818e-07
229	0x354e0b0e	7.6757067e-07
230	0x35bb91d4	1.3975027e-06
231	0x342fc975	1.6371435e-07
232	0x34ac8237	3.213224e-07
233	0x349c98ae	2.9168353e-07
234	0x34b663e5	3.3972825e-07
235	0x3454b955	1.9811462e-07
236	0x342bf208	1.6013666e-07
237	0x34d3e5b5	3.9468947e-07
238	0x34431deb	1.8171674e-07
239	0x35dd84d4	1.6504441e-06
240	0x3520e2e3	5.993481e-07
241	0x3415c4ce	1.3948303e-07
242	0x3461d1f2	2.1031136e-07
243	0x34850568	2.4777114e-07
244	0x348042e7	2.3890536e-07
245	0x34d918c4	4.043742e-07
246	0x344d4b24	1.9119449e-07
247	0x346142e9	2.09791e-07
248	0x34cebf28	3.8509575e-07
249	0x349c44ab	2.9107227e-07
250	0x35a79c16	1.2487897e-06
251	0x350913a1	5.106504e-07
252	0x34de806f	4.144417e-07
253	0x35ed9117	1.7700103e-06
254	0x35ebe587	1.7575666e-06
255	0x34b388ba	3.344083e-07

exp_avg f4 [41]
0	0xbac8c7f8	-0.0015318384
1	0x3958d9e9	0.00020680543
2	0x393ddbb2	0.00018106287
3	0x3955f222	0.00020403464
4	0xb9eab6d3	-0.00044768173
5	0x3a087082	0.0005204753
6	0xb920ed41	-0.00015347173
7	0xb8d07da4	-9.941615e-05
8	0x3a7dff9d	0.00096892734
9	0x3798eb87	1.8229488e-05
10	0x3956525e	0.00020439315
11	0x39bbc543	0.0003581439
12	0xb98f28c8	-0.0002730547
13	0x3b532245	0.003221647
14	0xb9ecfc7c	-0.00045201543
15	0x3a85ffbb	0.0010223308
16	0xb984e5cd	-0.00025348217
17	0xb8359e6d	-4.330131e-05
18	0xb9064afc	-0.0001280717
19	0xba1fa762	-0.00060903106
20	0xb9b512ff	-0.00034537163
21	0xb9a7a1a8	-0.00031973165
22	0xbaeced84	-0.0018076156
23	0x39f2fb69	0.00046345152
24	0x325c617d	1.2827852e-08
25	0xb800b4ec	-3.0686075e-05
26	0x3aa38d27	0.001247798
27	0xbab297c1	-0.0013625548
28	0x3a58c4f0	0.0008269092
29	0xb71e6960	-9.442068e-06
30	0xb9643aff	-0.00021765752
31	0xb99d0be9	-0.00029954247
32	0xba1729f5	-0.0005766445
33	0x38a7ab76	7.9951176e-05
34	0x379402fc	1.7644365e-05
35	0x38a19746	7.705255e-05
36	0xb8f88c2a	-0.00011851669
37	0x3a84f636	0.0010144177
38	0xb967143a	-0.00022037412
39	0xba836762	-0.0010025317
40	0xb9adac2e	-0.00033125415

exp_avg_sq f4 [41]
0	0x37d5ee51	2.5502553e-05
1	0x36b1ebe6	5.3024733e-06
2	0x3737042c	1.0908621e-05
3	0x371aa83d	9.218286e-06
4	0x37606584	1.3375076e-05
5	0x3716071d	8.942353e-06
6	0x372c8573	1.028307e-05
7	0x36d0e9e7	6.226113e-06
8	0x37c60319	2.3604882e-05
9	0x362d8aa4	2.5859708e-06
10	0x3726ddc8	9.9460085e-06
11	0x35b06844	1.3143367e-06
12	0x364efdb9	3.0844078e-06
13	0x3831770c	4.231096e-05
14	0x36cfa509	6.1882934e-06
15	0x37b4e766	2.1565425e-05
16	0x3735c3e8	1.0834054e-05
17	0x3661abd9	3.3627641e-06
18	0x380c1e36	3.3406737e-05
19	0x385000c7	4.959179e-05
20	0x359cd752	1.1685572e-06
21	0x36cd0280	6.109767e-06
22	0x38bdad06	9.0444504e-05
23	0x37f7de09	2.9548088e-05
24	0x3564ba8b	8.5208075e-07
25	0x371d7966	9.3861945e-06
26	0x36fc7912	7.5242797e-06
27	0x388c7a9e	6.6985594e-05
28	0x373c9adc	1.1241729e-05
29	0x374b7da4	1.2128996e-05
30	0x38419283	4.6151235e-05
31	0x36f6f8e3	7.3603455e-06
32	0x37d15ee2	2.4958925e-05
33	0x3806f3c9	3.2175132e-05
34	0x36aa2b82	5.07146e-06
35	0x363ef8a1	2.8456927e-06
36	0x374174af	1.1530864e-05
37	0x37f47ce9	2.9145232e-05
38	0x37251def	9.841736e-06
39	0x38128863	3.4936133e-05
40	0x371dbf6d	9.402499e-06
