lightning_logs/version_1/checkpoints/epoch=99-step=100.ckpt (torch, 125203 bytes, 6 tensors)

model.W.weight f4 [7, 1433]
00000000: 92de e83e 951d 9bc0 af78 0940 2f2b c840
00000010: fedc 0ac1 182d 28bf 04d5 6f40 6574 95bf
00000020: 87e8 18bf 2adb 0cbf aeac 31be eee7 29bf
00000030: 1408 5240 dcc9 8cbf 0671 b3bf 9d76 263f
00000040: f9c5 a6bf fb3a ef3d d655 b0bf 40be 16c1
00000050: bf8b 4f3a a39b a340 4a3f b8be cf6e aebf
00000060: dcf2 353e 7287 ec40 1f02 ee40 daa5 92c0
00000070: 2146 3c3e e32d d73f 6681 11bf 3c3c dfbe
00000080: 1063 a9be 21d6 5c3e 703d 92bf ecf1 31c0
00000090: d55c a3bf ed2f 8cbe 497f 243e 9fb5 a4bf
000000a0: 86da 063f b21f 3b3f 56f9 d0be 48f9 87bf
000000b0: a877 d1bf 5dc6 25c0 893c 4abe 779c 173f
000000c0: 3251 25bf 39e6 033f 633f f3bf 3e82 b4c0
000000d0: e731 e040 a44c ecbd a077 6dc0 f5b3 9cbf
000000e0: daf1 c540 aa0a b5bf 0976 4fc0 2289 99bf
000000f0: c3e9 50ba 595f 16c1 5d6c 1d40 6664 0041
00000100: cc39 3540 7b82 a53f 23da 72bf 897a 243f
00000110: 5928 5f3e ea0f 8bbe 0316 5fbe 9774 d23f
00000120: 9143 3cbe a1aa 0dbf 25a2 babf 1fed 98bf
00000130: e774 11c0 2b77 5ec0 5f79 57c0 80ad 0e3f
00000140: 3f6b b8be 7bba da40 0dd7 b7bf 50a5 bb3e
00000150: d81d 78be e704 c7bf bd97 7cc0 cdff ba3e
00000160: 4b09 d2c0 1ad8 5b40 38ba 173f eb37 43c0
00000170: 319c 14c0 c43f 15bf 4420 b8bf d658 4cbf
00000180: 2333 8540 eed5 f1bf 5f4a e240 cd22 c8c0
00000190: 0f45 74be 3671 c5be f409 5cbf 4c1b 8f3d
000001a0: f944 19bf 7049 d0be 48f1 12be 0791 50bf
000001b0: ce21 4ac0 fd0f 803c be2a 2a3d 7dd8 1bbf
000001c0: 53fb 28bf 1fd8 2fbd 50cd c9bf a22f 11bf
000001d0: 09f3 17c0 6f88 06bf 6bbb a9c0 4725 b93e
000001e0: 588a 5cbf 3d08 01bf 5857 c940 1b21 b9be
000001f0: b50c f0bf 5079 8c3e c05d f93e 4abc 13bf
00000200: 868a e1c0 3ab2 8b3f a761 1fc0 d1cc 32c0
00000210: e8d6 f740 fc80 ea3f e9bc b0bf 2b5b 00c0
00000220: a3b8 b8bf 24c4 cfbd 7f64 d2be a8b7 88bf
00000230: eadd a4c0 95d8 bebf 4299 4f3e 8038 d93d
00000240: 107d 37be 8055 60ba fb00 4240 ea0c 2abe
00000250: 2096 62bf c5dd 96c0 106d bd3f 8be8 5bc0
00000260: 9ca3 933e 93f1 21bd 4e81 75bf 1e8b 343f
00000270: 589f abbf dc3d 5cc0 65f7 213e 629e 4a3e
00000280: 6ae7 dfbf 6eae 7a40 3cac 5cc0 c82d 55bf
00000290: 0c72 9bbe adcb 463f 70ef 29c0 7fc5 3dbf
000002a0: 0bda 12c1 9579 babc c8bf 17bf 4607 80bd
000002b0: ed45 cabf 73d2 043f 262c 01c0 7340 393e
000002c0: 3a6f 2ac0 819c 92bf 1c01 853e dfcf c340
000002d0: 8283 2abe 6d43 19bf d519 4bbf aad3 45bf
000002e0: 8332 eebd 8b68 09bd 9f39 1640 fc40 afc0
000002f0: ae95 01c0 b6dd 0abf 8e31 32bf a311 3cc0
00000300: 9ada 73c0 7662 173f 6ae3 c23f 4d7a 1e40
00000310: f04b bfbf 5fbf 513e c7d9 64bf dd52 3cbf
00000320: e813 f3bb 2bbe a8bd 4107 33bf 0a05 d53f
00000330: 13df dcbd 6390 ce40 8f66 64bf d67b c1bf
00000340: 9823 5ac0 d697 a8be 1293 95bf 6885 ec40
00000350: f503 44c0 0999 debf 8af3 c440 7bd1 2240
00000360: b4a0 53be 164c febe 750f 86bf 0db9 2340
00000370: e9e9 ee3f ba7e eb3f d345 173f a7b4 13be
00000380: 0485 f4bf 76a8 8bbf ddc2 1ebe faa7 0cbf
00000390: 3c0f ea40 74e2 18be 7fad b3bf c5d9 84bf
000003a0: 9969 a6be a4d5 8640 ddbc 9b3f afd9 e4be
000003b0: c822 23bf f519 0441 69c4 b73f d661 51bf
000003c0: 7933 a5bf 3a9b b93f 1a6f 8abf d4f1 b0be
000003d0: bc78 e1be 898e bb40 4452 843d a2ed 1240
000003e0: 8295 a8bf 1c07 5cc0 bec4 25c0 1072 fdbf
000003f0: 3451 953f c6cc ea3f e97f 44bf 60cc 3340
0.45482308 -4.847361 2.147991 6.2552714 -8.678953 -0.6569381 3.7473764 -1.1676146
-0.5972981 -0.5502192 -0.17351028 -0.6636952 3.281743 -1.0999103 -1.4018867 0.6502474
-1.3029166 0.116811715 -1.3776195 -9.421448 0.0007917247 5.1127486 -0.35985786 -1.3627566
0.17768425 7.391534 7.437759 -4.5827456 0.18386127 1.6810879 -0.5683807 -0.43600643
-0.3308339 0.21566059 -1.1424999 -2.7803907 -1.2762705 -0.27380314 0.1606418 -1.2867926
0.5267719 0.7309524 -0.40815228 -1.062295 -1.6364641 -2.5902321 -0.19749655 0.5922312
-0.6457702 0.51523167 -1.9003719 -5.6408987 7.0060916 -0.115380555 -3.7104263 -1.2242419
6.185773 -1.414388 -3.2415793 -1.1994975 -0.00079694035 -9.398278 2.459739 8.024511
2.8316526 1.2930444 -0.948641 0.64249474 0.21792735 -0.2716058 -0.2178574 1.644183
-0.1838515 -0.55338484 -1.4580733 -1.1947364 -2.2727602 -3.4760234 -3.366783 0.5573349
-0.36019322 6.8352637 -1.4362503 0.3664956 -0.24230134 -1.5548371 -3.9467614 0.36523286
-6.5636344 3.4350648 0.5926852 -3.050288 -2.3220332 -0.58300424 -1.4384847 -0.7982305
4.1624923 -1.8893411 7.0715785 -6.254248 -0.23854469 -0.38562936 -0.8595269 0.06987628
-0.5987087 -0.40681028 -0.14349854 -0.81471294 -3.1583133 0.015632624 0.04154467 -0.6087721
-0.6600849 -0.04293072 -1.5765781 -0.56713307 -2.3742087 -0.5255193 -5.304128 0.36161253
-0.86148596 -0.50403196 6.291912 -0.3615807 -1.8753878 0.27436304 0.48704338 -0.5770918
-7.0481596 1.0913765 -2.4903352 -2.793751 7.7449837 1.8320613 -1.3807651 -2.0055645
-1.4431347 -0.10144833 -0.41092297 -1.0681047 -5.152089 -1.4909846 0.20273307 0.1060648
-0.17918801 -0.00085576624 3.0313098 -0.16606489 -0.8851032 -4.7145715 1.4798908 -3.4360683
0.28835762 -0.039537024 -0.9590043 0.70524776 -1.3408003 -3.4412756 0.1581703 0.19786981
-1.7492497 3.9168963 -3.4480124 -0.8327298 -0.30360448 0.77654535 -2.655239 -0.7412948
-9.178233 -0.022763053 -0.5927701 -0.06251387 -1.580259 0.5188362 -2.0183196 0.18090992
-2.6630387 -1.1454011 0.2597741 6.119125 -0.16651729 -0.5986851 -0.7933629 -0.772761
-0.11630728 -0.033546966 2.347267 -5.4766827 -2.0247607 -0.54244554 -0.69606864 -2.9385765
-3.8102174 0.59134614 1.5225651 2.4762146 -1.4945049 0.20483159 -0.893948 -0.7356394
-0.0074181445 -0.08239397 -0.69932944 1.6642163 -0.107847355 6.4551253 -0.8921899 -1.5115917
-3.4084225 -0.32928342 -1.1685507 7.391285 -3.0627415 -1.7390453 6.154729 2.5440357
-0.20666772 -0.49667424 -1.0473467 2.5581696 1.8665134 1.8398049 0.5909092 -0.14424382
-1.9103093 -1.0910785 -0.15504022 -0.5494381 7.3143597 -0.14930135 -1.4037322 -1.0378958
-0.3250244 4.213579 1.2167011 -0.4469733 -0.63724947 8.256337 1.4356815 -0.8178991
-1.2906333 1.4500496 -1.0815156 -0.345595 -0.44037426 5.8611493 0.064610034 2.295754
-1.3170626 -3.437934 -2.5901332 -1.9800434 1.1665406 1.8343742 -0.76757675 2.809349

model.W.bias f4 [7]
00000000: c7a9 04bf da2d 96be 9626 123f f4ed 7a3e
00000010: 5857 96bc 4c16 ea3e bf7f f3be
-0.5182156 -0.29331857 0.5709013 0.24504834 -0.018352196 0.45720136 -0.475584

exp_avg f4 [7, 1433]
00000000: 7202 5032 1e45 2eb6 3c0c 6fb2 40ea 6ab5
00000010: e17a e137 8d2a 32b4 85c3 e535 13a6 8c33
00000020: 2abb b4b1 7b0d 1833 6bb1 10b1 02a6 4033
00000030: abd2 d432 3c9c 4931 d4b9 e632 5cb0 4cb4
00000040: f4ba a9b2 b447 44b2 2f10 12b3 4ad7 9638
00000050: 206b a92d 9c06 5636 46c0 0732 a00b 3333
00000060: cd4b a031 192c 33b7 06bc 4436 81e1 23b6
00000070: b96b 38b3 c223 5435 d7e9 4bb3 5056 9eb0
00000080: 4290 62b3 f3a0 78b3 4a1d 87b3 93cd adb5
00000090: 58f2 84b4 d593 9ab4 1ace 3a34 af78 e8b4
000000a0: 2100 0eb5 ca60 d933 d4b8 3db3 dfc8 3c33
000000b0: dc1c 86b2 8c1f 12b6 0a68 6bb2 331d f035
000000c0: dc39 ae34 f53a 4d33 d944 36b4 dd29 41b6
000000d0: 1754 2bb7 6e4b 0130 e389 5bb6 16a6 8b31
000000e0: a4d1 c0b5 5cce 63b4 c94d e8b5 e5a6 b634
000000f0: 0060 35ad 0a22 ac36 a760 3434 138e ddb7
00000100: 5aaa 8835 eb95 cbb3 4ef7 71b4 554b af34
00000110: 9f81 3bb1 9b99 fc32 8dc8 44b4 eff3 8b34
00000120: 4151 51b3 a579 8db4 acf5 1ab3 915a fbb3
00000130: d7f1 4ab6 e931 64b5 9df4 11b6 761b 2c33
00000140: 6a2b 31b2 001f cab6 924b 3333 35a5 45b3
00000150: 4d60 68b4 01a7 47b5 3140 2bb6 3989 6db2
00000160: b0d0 3bb5 7d1b 2236 c0a7 a92e 5af5 88b3
00000170: 028e 1cb5 5856 36b5 de91 9e32 628d cf33
00000180: 6547 6c36 f83b 0eb3 be4e 1636 b4e5 11b3
00000190: 2829 9c33 2e5e 44b3 0462 a4b4 4849 cbb2
000001a0: ce3d a5b3 f45e fdb1 a0f3 8331 37ad 1233
000001b0: e16a 81b6 4886 e7b3 38a5 b4b0 7bc9 6433
000001c0: 42bc a6b2 700b 52b0 10b6 a0b4 33ce c932
000001d0: 5319 94b4 fbcb 17b3 8256 16b6 f02f 9ab1
000001e0: c2eb 0cb2 ff08 d833 a827 2036 8798 9eb4
000001f0: d59a 8bb4 578b a2b4 a39d 50b3 34c9 7134
00000200: cbe6 01b6 29bc fbb2 66e3 10b5 8c33 68b4
00000210: 72a6 2eb7 100e 5e35 02a7 67b4 67bb 1137
00000220: b1c7 fcb5 b321 a7b3 c4d8 98b2 f24a 39b4
00000230: d2a3 79b6 0135 6533 5e26 93b1 1898 b92f
00000240: 3673 b331 8f81 a92f 402b 83b4 c65b 32b1
00000250: e994 70b4 6ab2 73b6 b84a c031 cdba 14b5
00000260: 92b6 9f33 817f aab4 afea 89b4 5414 41b4
00000270: 48c9 c433 1644 3db6 e724 9033 61c0 8b32
00000280: 0c43 04b4 928e 2336 5bc9 8834 40f5 5eb4
00000290: 3e10 2eb2 fc8d 50b4 e0a5 bf32 d06b e6b3
000002a0: 7542 4236 da59 7631 5441 ab32 6cf4 1fae
000002b0: 65c2 4b34 b65d b4b1 d35c b4b4 8e49 6cb3
000002c0: fe39 94b4 040c 4933 40e9 0330 709d e035
000002d0: 2e49 1030 076b 81b4 fac4 0134 497d 25b3
000002e0: 1c94 ccb3 62d5 15af dfbb 8133 761a 05b6
000002f0: 1f40 5bb5 3773 1cb4 44c1 24b3 5a4e 8bb5
00000300: 1314 7db6 a734 8633 2913 5f36 fc7f 9935
00000310: 32ab e6b3 2a7e 60b3 a3e2 3eb4 a74b 3bb2
00000320: 6a5c b2b1 6615 c732 ff10 4db4 7ce6 2636
00000330: bc62 68b1 db4d 46b7 2c5e fe32 37e8 36b4
00000340: 840a ccb5 d4fa 19b3 6460 35b4 5978 76b7
00000350: c9a6 07b6 7406 a3b5 63aa 5b36 07a0 d1b3
00000360: a74d 59b2 3742 9cb4 7016 a1b4 aa32 e7b3
00000370: dae6 6834 b9e7 4e34 1d0b 4534 2ea4 74b0
00000380: 4744 55b4 ea88 03b4 7d12 1cb3 dabc ee32
00000390: 24ea dab5 2279 3431 b555 5633 2001 b8af
000003a0: ee64 dfb3 2690 b332 3410 6fb4 fc70 eeb1
000003b0: 414e b1b3 28e3 2cb7 3462 a132 78c1 0fb3
000003c0: 5cdd 63b4 87a5 8fb3 a2e9 74b4 e850 04b4
000003d0: 748f 7ab2 acfe 1336 07ad 24b2 aa9a 5e34
000003e0: dcdb 94b4 ae64 36b4 2da7 f7b3 9ef6 43b4
000003f0: 5da1 46b3 3299 0a34 0c24 0b32 6a77 6534
1.21077495e-08 -2.5968252e-06 -1.3914413e-08 -8.751267e-07 2.687931e-05 -1.6593022e-07 1.7118733e-06 6.549467e-08
-5.2599676e-09 3.540252e-08 -2.1055608e-09 4.4854467e-08 2.4775849e-08 2.9338159e-09 2.6860029e-08 -1.906314e-07
-1.9759206e-08 -1.1425005e-08 -3.4007993e-08 7.192658e-05 1.9260649e-11 3.1892332e-06 7.901752e-09 4.1687258e-08
4.6652304e-09 -1.0679499e-05 2.931572e-06 -2.4420153e-06 -4.293881e-08 7.902819e-07 -4.7477297e-08 -1.1520545e-09
-5.2750927e-08 -5.7888382e-08 -6.291755e-08 -1.2949334e-06 -2.4763244e-07 -2.8792297e-07 1.7397579e-07 -4.3301176e-07
-5.289931e-07 1.0122456e-07 -4.4173092e-08 4.3954852e-08 -1.5612777e-08 -2.1774058e-06 -1.3702456e-08 1.7889892e-06
3.2452124e-07 4.7783903e-08 -1.6975117e-07 -2.8783609e-06 -1.0211973e-05 4.703712e-10 -3.2713804e-06 4.064314e-09
-1.4366128e-06 -2.1216096e-07 -1.7307985e-06 3.4021573e-07 -1.0309975e-11 5.129962e-06 1.6798968e-07 -2.6411411e-05
1.0182368e-06 -9.480194e-08 -2.2534843e-07 3.26511e-07 -2.7285763e-09 2.9406513e-08 -1.8326882e-07 2.6068253e-07
-4.8735505e-08 -2.6351805e-07 -3.6079356e-08 -1.1704572e-07 -3.0241115e-06 -8.500925e-07 -2.1749067e-06 4.0071846e-08
-1.0312627e-08 -6.023678e-06 4.1745416e-08 -4.601789e-08 -2.1641718e-07 -7.43763e-07 -2.551835e-06 -1.38264165e-08
-6.996661e-07 2.4155881e-06 7.7150286e-11 -6.377623e-08 -5.832118e-07 -6.792593e-07 1.8459954e-08 9.664906e-08
3.5208298e-06 -3.3116493e-08 2.2397576e-06 -3.3969357e-08 7.2718024e-08 -4.5720462e-08 -3.0618696e-07 -2.3665635e-08
-7.6946534e-08 -7.374064e-09 3.8402987e-09 3.4150812e-08 -3.856942e-06 -1.0781201e-07 -1.3143682e-09 5.3268632e-08
-1.9410553e-08 -7.641381e-10 -2.993479e-07 2.3493248e-08 -2.7585574e-07 -3.5342946e-08 -2.2402096e-06 -4.4874398e-09
-8.202678e-09 1.005992e-07 2.386494e-06 -2.9540772e-07 -2.6003423e-07 -3.0276234e-07 -4.8572144e-08 2.2518071e-07
-1.9356837e-06 -2.9305811e-08 -5.397509e-07 -2.1625436e-07 -1.0409962e-05 8.272191e-07 -2.1574309e-07 8.6863065e-06
-1.8833581e-06 -7.782673e-08 -1.7793703e-08 -1.7256733e-07 -3.7199247e-06 5.3366424e-08 -4.282625e-09 3.3759373e-10
5.2226836e-09 3.0832978e-10 -2.443212e-07 -2.5954576e-09 -2.2405915e-07 -3.6313672e-06 5.59643e-09 -5.540613e-07
7.437224e-08 -3.175774e-07 -2.5688993e-07 -1.7981921e-07 9.163574e-08 -2.8202826e-06 6.712235e-08 1.6269214e-08
-1.231785e-07 2.437188e-06 2.547848e-07 -2.0764583e-07 -1.0131826e-08 -1.9423163e-07 2.2310758e-08 -1.07298206e-07
2.8946936e-06 3.5848786e-09 1.9936728e-08 -3.6369505e-11 1.8976569e-07 -5.249343e-09 -3.359515e-07 -5.501493e-08
-2.7609343e-07 4.6809888e-08 4.798899e-10 1.6735121e-06 5.249089e-10 -2.4105995e-07 1.2085721e-07 -3.8531002e-08
-9.526431e-08 -1.362728e-10 6.041204e-08 -1.9833947e-06 -8.1677166e-07 -1.4570547e-07 -3.836e-08 -1.037911e-06
-3.7711623e-06 6.249439e-08 3.3240742e-06 1.1436637e-06 -1.074135e-07 -5.226881e-08 -1.7777579e-07 -1.0902034e-08
-5.190988e-09 2.317638e-08 -1.9098296e-07 2.4870087e-06 -3.3816567e-09 -1.1819847e-05 2.9612316e-08 -1.703455e-07
-1.5202245e-06 -3.5851215e-08 -1.6892005e-07 -1.4690763e-05 -2.021365e-06 -1.2146324e-06 3.2732721e-06 -9.76143e-08
-1.26487185e-08 -2.9105442e-07 -3.0004912e-07 -1.07659915e-07 2.1690667e-07 1.9269545e-07 1.8351098e-07 -8.8999996e-10
-1.986201e-07 -1.2250135e-07 -3.6338395e-08 2.7792726e-08 -1.631041e-06 2.6262303e-09 4.9903708e-08 -3.3470204e-10
-1.0402606e-07 2.0903894e-08 -2.2264504e-07 -6.9395565e-09 -8.256439e-08 -1.0304888e-05 1.8787524e-08 -3.347074e-08
-2.1221553e-07 -6.689066e-08 -2.2809266e-07 -1.2322892e-07 -1.4584533e-08 2.2052945e-06 -9.585398e-09 2.0731628e-07
-2.7727117e-07 -1.6986698e-07 -1.1532243e-07 -1.8250509e-07 -4.6247226e-08 1.2907984e-07 8.099061e-09 2.137073e-07

exp_avg_sq f4 [7, 1433]
00000000: bc2d e729 55b1 f42e c8df 212d b722 fc2f
00000010: b80b d330 e812 312c 447b 752e 0e86 1a2d
00000020: d5c7 4e2b a88a eb2b 35af 7d29 e30a c52b
00000030: a98f 762d 0c52 e82b 5c7b b62b 75a8 a02d
00000040: 865b 2e2d 99e3 2e2c e688 942d 0085 1732
00000050: 01e8 2d27 2be0 0e2f 11d7 8d2b 0b09 2a2d
00000060: a21b c329 aa5e 9530 e762 b02e 6d0d eb2e
00000070: 6267 b32b 3bcf 072e eb10 032d 6974 2128
00000080: b434 3e2b 144f f02b 88ee 0d2d 9c67 222e
00000090: b8cd 4f2c cb8f 952c 0edd 052d 4076 6b2d
000000a0: 0db5 1c2e a1d9 472d 3133 532b 647c 9e2b
000000b0: b75c 4b2d 6195 bd2e 22d0 f929 4360 962e
000000c0: 9192 982d adbe 3e2b b308 822d 1aec 7130
000000d0: 0d01 b030 0799 f028 7336 002f 86a4 762d
000000e0: 2f80 1430 836c 052d d5bb 242e 6158 5d2d
000000f0: 3213 2e27 bc86 a72f 3514 da2b b5eb 0f31
00000100: 112d 302e 4d52 a42c 262f 952c c39e 5c2c
00000110: a5f3 e528 36f5 1d2c a4da 762d 4d3a c52d
00000120: 5f20 352b 1111 982c 7991 482b e41e c32d
00000130: 1e95 3b2f 1842 ac2d 9195 842e afc3 ff2a
00000140: f8ac ec2a 1c12 3c30 46be 2d2d a130 582b
00000150: f085 7c2c e278 0a2e e645 9d2e 6a2d 032b
00000160: d76e 9c2f 8464 b52e 2a10 882a d828 fc2c
00000170: 4a9d fd2d 51d4 382e 3d9b c12b 0800 552d
00000180: 8568 ef2e cf8d a22c b0d8 312f 3928 1d30
00000190: 4411 ea2b 3613 2b2b bcd8 ac2c 2de3 612c
000001a0: 1646 a92c b93f 0a2a 9700 a629 2f17 c92b
000001b0: bdcd b32e f728 f42b 78e0 892b ea08 a82b
000001c0: 49eb 762b 7e62 8827 5e44 a52c fd67 912b
000001d0: 6816 af2c 225a 512b 605d ad2f 9507 102a
000001e0: f3ac 222b 11cf aa2b a8c6 9a2e c0b1 a22c
000001f0: c83e 3d2c 3bb8 082e 6143 af2c 4fbb a92c
00000200: 887f 8f2e 3f53 422d a887 802e e58d 1a2e
00000210: e7f1 9a30 d9b6 212e 491a c42c 8f84 712f
00000220: aefd 402e 7334 e52b 35f4 f22a 19c0 c12c
00000230: ea7a 932f e94a 6f2b a7a6 812a c5c7 9729
00000240: 514f 8a28 d0bc 3427 6ce9 3c2d 4efb bb29
00000250: 0495 d72c e929 252f 95fe 7c2a b619 c82d
00000260: 7237 ce2b 534c 9c2c 970b 7d2c ffbe 052d
00000270: 73f0 1e2d acf8 972e bf15 832b 833a a02b
00000280: 2b0e 9a2d 04eb 8b2e 790e 422d 1cea c42c
00000290: 510c e12a 502c 942d cbdc 392d 7f66 e62c
000002a0: 6f7e 792f b689 202a 37c9 d42a 7cd8 8f26
000002b0: 1263 6e2d 4835 f82d a803 c52d 31d7 cb2b
000002c0: c7a4 c42c 359c ae2b 63e5 b12b be4d 0830
000002d0: ce92 af28 0ce6 652c 6731 2d2d 4f0c 222d
000002e0: 5d70 de2b 4dee 9526 5320 b92b 43db f12f
000002f0: 893b 132e ab14 532c 116c f62b c1ef 182e
00000300: 9514 2b2f f385 102c 9633 ca2e bb86 062e
00000310: 4caa 102d c269 9d2d 9c5c 362c ca7f fc2b
00000320: 4c4d 022b 69db c62a 32ec d32c 14cc a62e
00000330: 0943 0f29 7219 2931 59d9 8d2b 5c0b c02c
00000340: 06a2 822e 13dc 082b 529e 252c 64d3 f430
00000350: a60b 3f2e 8beb 2f2e 33f8 492f 6d4a 652d
00000360: 7978 5a2a 9071 822c 97d2 702c 2636 1d2d
00000370: 329d 122c 564b 892c 29d9 9f2c 1383 c129
00000380: a281 a52d be2d 072d be36 7b2b f945 d52b
00000390: a653 c12f 1451 cb29 81fc 2f2d 909c 1c2b
000003a0: e0c7 eb2d 1f38 252d 4d7c 012e 6d47 122a
000003b0: 287a 312c bcc0 6f30 f1c8 9e2c f59e 402a
000003c0: 2334 c32c 8370 122d 1cfc bd2c 95ce e32b
000003d0: 98a2 0c2b 6ddc a82e 128a fb29 35dd 1a2c
000003e0: 9af9 c32c 2133 ba2d bfa6 8a2d 9b9d 042c
000003f0: c6e3 992d 3017 992d 875e a22a e805 a02d
1.02663944e-13 1.1127336e-10 9.20148e-12 4.58632e-10 1.5355601e-09 2.5163708e-12 5.5816032e-11 8.783653e-12
7.3463224e-13 1.6736239e-12 5.6329253e-14 1.4000714e-12 1.401538e-11 1.6507364e-12 1.2966117e-12 1.8264704e-11
9.911077e-12 2.485323e-12 1.6886447e-11 8.8195975e-09 2.4134342e-15 1.2994465e-10 1.0078345e-12 9.665389e-12
8.664533e-14 1.0868082e-09 8.021122e-11 1.06889476e-10 1.274741e-12 3.0879504e-11 7.450244e-12 8.962538e-15
6.75747e-13 1.7074974e-12 8.067887e-12 3.692656e-11 2.9530666e-12 4.250799e-12 7.609259e-12 1.338446e-11
3.56311e-11 1.1360164e-11 7.50333e-13 1.1261101e-12 1.1559801e-11 8.62126e-11 1.10939266e-13 6.83831e-11
1.7345488e-11 6.7766176e-13 1.4783152e-11 8.801081e-10 1.2805984e-09 2.6711718e-14 1.1660876e-10 1.4020013e-11
5.4024246e-10 7.584269e-12 3.745611e-11 1.258202e-11 2.4157757e-15 3.0472858e-10 1.549544e-12 2.0943223e-09
4.0057794e-11 4.6702976e-12 4.2400692e-12 3.135201e-12 2.5529771e-14 2.2447161e-12 1.4032029e-11 2.2422198e-11
6.434904e-13 4.3219946e-12 7.125616e-13 2.2182652e-11 1.7060528e-10 1.9583488e-11 6.0292334e-11 4.5432882e-13
4.2042043e-13 6.8419737e-10 9.876161e-12 7.68061e-13 3.5885704e-12 3.1484933e-11 7.15195e-11 4.6603574e-13
2.845499e-10 8.248782e-11 2.416967e-13 7.1668053e-12 2.883262e-11 4.202533e-11 1.3756562e-12 1.2107655e-11
1.0887028e-10 4.620061e-12 1.6175039e-10 5.7173427e-10 1.6631492e-12 6.0778064e-13 4.9125964e-12 3.210053e-12
4.81105e-12 1.227897e-13 7.371983e-14 1.4288344e-12 8.176524e-11 1.7348613e-12 9.796738e-13 1.1939592e-12
8.772328e-13 3.785437e-15 4.6971723e-12 1.0331732e-12 4.9762867e-12 7.43768e-13 3.1534864e-10 1.27924e-13
5.7793977e-13 1.2136699e-12 7.0383976e-11 4.624051e-12 2.6893366e-12 3.108645e-11 4.9812797e-12 4.8240643e-12
6.525541e-11 1.1046108e-11 5.8448635e-11 3.5141574e-11 1.1273728e-09 3.6769563e-11 5.5735733e-12 2.1965917e-10
4.388106e-11 1.6285986e-12 4.3157288e-13 5.506717e-12 2.682648e-10 8.5013816e-13 2.3030642e-13 6.7404016e-14
1.5355476e-14 2.5082374e-15 1.0738393e-11 8.3480626e-14 6.1272116e-12 1.5021552e-10 2.2470422e-13 2.2748785e-11
1.465257e-12 4.4422604e-12 3.5959896e-12 7.602584e-12 9.034651e-12 6.910858e-11 9.314146e-13 1.1384924e-12
1.7514065e-11 6.362735e-11 1.1030837e-11 5.5966464e-12 3.9976575e-13 1.684533e-11 1.0565058e-11 6.5483725e-12
2.2691336e-10 1.4258633e-13 3.7798386e-13 9.981296e-16 1.3550732e-11 2.8217997e-11 2.239793e-11 1.4483745e-12
5.588949e-12 1.24068e-12 1.2640274e-12 4.958699e-10 1.949257e-14 3.267056e-12 9.844881e-12 9.211367e-12
1.5805236e-12 1.0403543e-15 1.3154012e-12 4.399344e-10 3.3476808e-11 2.9996376e-12 1.7509346e-12 3.4773743e-11
1.5559672e-10 2.0537988e-12 9.19506e-11 3.0587737e-11 8.223266e-12 1.78958e-11 2.5915164e-12 1.7941146e-12
4.629255e-13 3.5324112e-13 6.0232036e-12 7.5850576e-11 3.1810522e-14 2.46072e-09 1.0078979e-12 5.4582294e-12
5.940497e-11 4.862232e-13 2.3535796e-12 1.7813417e-09 4.3438718e-11 3.9999597e-11 1.8369022e-10 1.3033669e-11
1.9404087e-13 3.70743e-12 3.4222952e-12 8.93644e-12 2.0835109e-12 3.902138e-12 4.5431614e-12 8.5936595e-14
1.8815897e-11 7.684018e-12 8.9249083e-13 1.5153982e-12 3.516593e-10 9.029076e-14 1.0003665e-11 5.563961e-13
2.680517e-11 9.3916255e-12 2.9441605e-11 1.2992186e-13 2.5221023e-12 8.7221586e-10 4.512939e-12 1.7108175e-13
5.5480217e-12 8.324122e-12 5.399693e-12 1.6186658e-12 4.9963636e-13 7.678911e-11 1.11705905e-13 2.200751e-12
5.5699447e-12 2.1168458e-11 1.5762834e-11 1.8845817e-12 1.7495238e-11 1.7404383e-11 2.8842572e-13 1.8192517e-11

exp_avg f4 [7]
00000000: ac37 de37 4d9c 2337 7b99 7037 6a82 15b8
00000010: 62dd ceb7 78e7 f2b7 297d 2138
2.6490387e-05 9.751949e-06 1.434085e-05 -3.5645826e-05 -2.4660203e-05 -2.8956434e-05 3.8501956e-05

exp_avg_sq f4 [7]
00000000: 973d ad35 d234 4836 12a9 3e36 8776 db35
00000010: d0c7 e635 bc18 0036 176e 2f36
1.290743e-06 2.9833068e-06 2.8410618e-06 1.6351268e-06 1.7194488e-06 1.9087884e-06 2.6141113e-06
